ihec_code_lab-main/chatbot/chatbot/data.pth (torch, 7850 bytes, 6 tensors)

l1.weight f4 [8, 97]
0.5843239 0.7345832 0.48417404 0.25979438 0.1319696 -0.31729233 0.6693305 0.40196773
0.2244331 0.8013117 0.16337053 0.45463434 -0.32289213 -0.5906599 0.14233832 -0.7016078
0.15101294 0.14777236 0.372774 0.5547772 0.6756584 0.42451033 0.4198213 -0.38487375
0.45022455 -0.19977269 -0.27305952 -0.038691908 0.47552192 0.28249556 0.25269333 0.5968494
0.5947836 0.319423 0.28942603 -0.39929652 0.34354055 0.25586575 0.29941228 0.18939112
0.2870988 0.17037287 0.28325778 0.13103446 0.15563145 0.13729799 -0.29692888 0.13755146
0.60117865 0.52714866 0.17103459 -0.38881636 -0.31408745 0.39570403 0.5922638 -0.28264844
0.4875192 0.21859011 0.22394133 -0.33342266 0.1471816 -0.22029309 -0.35051867 -0.3720654
-0.2420518 -0.29790637 0.45035103 -0.2742911 0.65635973 0.5967987 0.4029908 0.4375792
-0.34058565 -0.30911586 -0.003248198 0.3763275 0.12552772 0.7087944 0.24166127 0.7684901
0.3903126 0.16192266 -0.39453226 0.36483487 0.33585936 0.4189196 0.7289196 -0.27330855
-0.6461966 0.03875217 -0.532022 -0.6901339 0.44642028 0.30235296 0.13886797 -0.39935374
0.11186916 0.1308272 0.22497088 0.33516693 0.29261017 0.11692719 -0.0356192 0.10307036
0.52686936 0.29172468 0.47175947 -0.33952314 -0.34183618 0.007741794 0.40781903 0.22819792
0.62093425 -0.3393415 0.18896024 0.37422317 0.66485995 0.1460109 0.3227592 0.11535883
-0.0647322 -0.43910304 0.11746486 0.018541886 0.20431693 0.57283044 -0.17854549 -0.113884486
-0.33875653 0.40138474 0.39963478 0.1630585 0.43056947 0.4502371 -0.1608329 0.7111611
-0.33937103 -0.33932942 -0.30000895 -0.22547136 -0.19998325 -0.33798948 0.20931351 0.15439692
0.76234376 0.6816901 0.57271135 0.5083041 0.0908659 -0.050806865 0.3373733 0.2463552
0.12832895 0.78882986 -0.17851847 0.10894987 0.7785362 0.72295123 0.29731283 -0.46755913
-0.032510154 -0.0064287754 -0.0810281 0.41717523 0.8334558 0.14482008 0.11574887 0.43198118
0.4704173 -0.4429105 0.5299477 0.25667542 0.31137317 0.48538497 0.7048946 -0.33953604
-0.62960386 0.34392858 0.62678415 0.19566827 0.5920205 0.61829406 0.7927396 -0.23251522
0.09912013 -0.12172144 -0.39905402 0.54135555 0.6022254 0.6368434 0.34692496 0.04275815
0.19995783 -0.40453124 0.4923652 0.38784418 -0.4057588 -0.2657212 0.053765904 0.3441691
-0.18652087 0.29069108 0.28834435 -0.21080439 0.3591845 0.59299207 0.2628144 0.08844438
0.17770036 0.16763534 0.40917957 -0.26549888 -0.09328444 0.36184365 -0.15532969 -0.09090667
-0.16327147 0.62111926 0.39873764 0.29602107 0.5239275 -0.22744672 -0.21541478 0.24122046
0.30363968 0.52063125 -0.4167707 -0.16402222 -0.437114 0.20502573 -0.215722 0.3289733
-0.62976336 0.32384697 0.327854 0.2685595 0.42453152 0.1957342 0.40670475 -0.48201913
0.4108877 0.267664 -0.45422348 -0.10430254 0.014345389 0.46502525 0.43562844 -0.16584076
0.2783343 0.2630354 -0.46644205 0.32174602 -0.46010557 0.0445502 0.252169 -0.3033067
00000000: 4096 153f a50d 3c3f a9e5 f73e c503 853e
00000010: 0a23 073e 2474 a2be 3e59 2b3f b7ce cd3e
00000020: cad1 653e c322 4d3f 9b4a 273e d5c5 e83e
00000030: 1e52 a5be 7d35 17bf 23c1 113e 929c 33bf
00000040: 23a3 1a3e a351 173e 3cdc be3e e105 0e3f
00000050: f3f7 2c3f 6b59 d93e d1f2 d63e 2c0e c5be
00000060: d583 e63e 3691 4cbe 75ce 8bbe 687b 1ebd
00000070: 9c77 f33e 42a3 903e 0561 813e 1fcb 183f
00000080: bd43 183f 698b a33e a62f 943e 9870 ccbe
00000090: 8ce4 af3e d600 833e 914c 993e bfef 413e
000000a0: 9dfe 923e 3a76 2e3e 2a07 913e e62d 063e
000000b0: da5d 1f3e d897 0c3e 1007 98be 4ada 0c3e
000000c0: d8e6 193f 37f3 063f b123 2f3e f012 c7be
000000d0: 12d0 a0be b899 ca3e 9a9e 173f 4cb7 90be
000000e0: 1e9c f93e 16d6 5f3e e050 653e 60b6 aabe
000000f0: c6b6 163e 8394 61be 2f77 b3be 5b7f bebe
00000100: 6ddc 77be 2f87 98be 6994 e63e e26f 8cbe
00000110: 3107 283f cdc7 183f cf54 ce3e 620a e03e
00000120: 3e61 aebe 6f44 9ebe b8df 54bb 00ae c03e
00000130: 578a 003e 8d73 353f 0d76 773e c4bb 443f
00000140: 0ed7 c73e 0ecf 253e 2200 cabe a3cb ba3e
00000150: c2f5 ab3e a17c d63e 7a9a 3a3f 19ef 8bbe
00000160: 246d 25bf 98ba 1e3d 9832 08bf 9eac 30bf
00000170: 3391 e43e 02ce 9a3e 6833 0e3e 1878 ccbe
00000180: a81b e53d 91f7 053e c45e 663e 009b ab3e
00000190: 00d1 953e 8677 ef3d 70e5 11bd 8e16 d33d
000001a0: e9e0 063f f05c 953e 758a f13e fad5 adbe
000001b0: 2705 afbe e0ae fd3b a8cd d03e b7ac 693e
000001c0: 8cf5 1e3f 2bbe adbe cb7e 413e 2e9a bf3e
000001d0: 4334 2a3f e283 153e b240 a53e 4041 ec3d
000001e0: 5192 84bd 1dd2 e0be 6b91 f03d 27e5 973c
000001f0: 7538 513e 04a5 123f a1d4 36be 453c e9bd
00000200: 7f71 adbe 4d82 cd3e ee9c cc3e cff8 263e
00000210: 9a73 dc3e 7a85 e63e 61b1 24be a70e 363f
00000220: 0ac2 adbe 96bc adbe c69a 99be f7e1 66be
00000230: 69c8 4cbe f50c adbe 4856 563e 3a1a 1e3e
00000240: f628 433f 3e83 2e3f 369d 123f 3820 023f
00000250: e717 ba3d dc1a 50bd 31bc ac3e 8a44 7c3e
00000260: aa68 033e c1f0 493f 8ccd 36be 1c21 df3d
00000270: 264e 473f 5513 393f 6339 983e e963 efbe
00000280: 5e29 05bd 7aa8 d2bb 0ff2 a5bd fe97 d53e
00000290: 5c5d 553f b74b 143e be0d ed3d a32c dd3e
000002a0: 89da f03e 2ac5 e2be a7aa 073f f66a 833e
000002b0: 4e6c 9f3e 6184 f83e f973 343f abd7 adbe
000002c0: b82d 21bf 6817 b03e ed74 203f 435d 483e
000002d0: a88e 173f 8548 1e3f fcf0 4a3f 7818 6ebe
000002e0: 7fff ca3d 1749 f9bd cf50 ccbe 4796 0a3f
000002f0: 722b 1a3f 2b08 233f 26a0 b13e 2b23 2f3d
00000300: bfc1 4c3e b81e cfbe 4b17 fc3e 8393 c63e
00000310: 9ebf cfbe 9c0c 88be a339 5c3d ef36 b03e
00000320: 54ff 3ebe 76d5 943e dfa1 933e 1bdd 57be
00000330: 08e7 b73e 54ce 173f 9c8f 863e 5422 b53d
00000340: 15f7 353e 99a8 2b3e fc7f d13e 78ef 87be
00000350: ea0b bfbd 9243 b93e bf0e 1fbe 472d babd
00000360: a330 27be ac01 1f3f 5727 cc3e 1390 973e
00000370: 1d20 063f cbe7 68be b195 5cbe 7f02 773e
00000380: a976 9b3e 1748 053f f862 d5be 71f5 27be
00000390: 68cd dfbe 44f2 513e 3ae6 5cbe 306f a83e
000003a0: 2c38 21bf 45cf a53e 7bdc a73e a180 893e
000003b0: 325c d93e 8c6e 483e 9b3b d03e 36cb f6be
000003c0: df5f d23e 410b 893e fb8f e8be 929c d5bd
000003d0: ec08 6b3c ca17 ee3e b10a df3e 29d2 29be
000003e0: d581 8e3e 93ac 863e 7ed1 eebe e5bb a43e
000003f0: f592 ebbe 457a 363d 4c1c 813e 044b 9bbe

l1.bias f4 [8]
0.8550519 0.33935592 0.8707917 0.46023446 0.7897835 0.78081477 0.88834757 0.79610103
00000000: aee4 5a3f 0fc0 ad3e 34ec 5e3f daa3 eb3e
00000010: 402f 4a3f 7ae3 473f bf6a 633f 47cd 4b3f

l2.weight f4 [8, 8]
0.8288942 1.318138 0.2614476 -0.124073245 -0.60330224 0.1542416 -1.3457435 0.6633276
-0.7364599 0.15545817 0.87188154 0.5179525 -0.21347031 0.4618651 -0.020811751 0.78044856
0.109580375 -0.28501555 0.78898174 1.0004475 0.7463764 -1.6095052 0.15279254 -0.13288945
-0.9455776 0.3911645 0.8962414 0.43419045 -0.46788982 -0.33362526 0.5114196 0.56705487
-0.33425292 0.06448442 -0.061906546 -0.27935165 0.03016442 0.15956691 0.24068251 -0.31100327
1.0190004 -0.9444233 1.0488886 -1.2355008 1.1246052 0.8500778 0.89985055 0.9810739
0.57138824 -0.3906416 0.2290981 0.49251905 -0.66360277 1.2767954 1.3904384 1.0565757
0.92842424 0.67746127 -0.93988174 0.9136815 1.281861 0.22770822 0.9718164 -1.0248346
00000000: 6932 543f bfb8 a83f 76dc 853e 1d1a febd
00000010: 0472 1abf 83f1 1d3e 5341 acbf d6cf 293f
00000020: a388 3cbf 6d30 1f3e a133 5f3f 8998 043f
00000030: f697 5abe 9579 ec3e 687d aabc 7acb 473f
00000040: ad6b e03d 8fed 91be b5fa 493f aa0e 803f
00000050: 8612 3f3f 4404 cebf a675 1c3e 2c14 08be
00000060: 6011 72bf b746 c83e 1470 653f 364e de3e
00000070: 418f efbe eed0 aabe 65ec 023f 822a 113f
00000080: 3323 abbe 6810 843d b891 7dbd 2e07 8fbe
00000090: 601b f73c 8265 233e 7a75 763e d23b 9fbe
000000a0: 9b6e 823f bac5 71bf fb41 863f e424 9ebf
000000b0: 10f3 8f3f b39e 593f 9b5c 663f a927 7b3f
000000c0: 8046 123f 2d02 c8be b198 6a3e 752b fc3e
000000d0: dfe1 29bf 086e a33f e3f9 b13f df3d 873f
000000e0: 36ad 6d3f 1a6e 2d3f 179c 70bf 08e7 693f
000000f0: 0514 a43f 582c 693e f6c8 783f c82d 83bf

l2.bias f4 [8]
0.17783831 0.60307044 0.06316329 -0.14408693 -0.152929 0.41931456 0.024094045 0.387799
00000000: 3f1b 363e d362 1a3f c15b 813d 868b 13be
00000010: 6b99 1cbe 66b0 d63e e060 c53c 978d c63e

l3.weight f4 [12, 8]
-1.3238302 -0.93080485 -1.2970835 -1.34845 -0.15854342 -0.19135015 0.21230648 0.49023262
-0.6629492 -0.775212 0.6616326 -1.5514438 0.1758168 0.4124274 -0.20552123 -0.28753456
-0.26137358 -0.9050791 -0.39072454 -0.94691867 0.2269071 0.35339534 -1.5364885 0.45124945
-1.6493926 0.38940978 0.48686862 -0.007686459 -0.070123285 -0.50935864 -1.8656949 0.32557517
-0.35096395 -0.34439468 0.4333959 -1.8763583 -0.0065154433 -1.3713472 -0.41968808 0.3997524
-1.3677742 0.4028478 -1.5212108 -0.7767668 -0.30736703 0.9971947 0.45790285 -0.8594139
0.8374901 -0.22993758 -1.6042452 -1.323809 -0.09681779 -0.9690213 -1.15104 0.1860887
0.591596 -0.1350253 -0.89719594 -0.39065894 0.21176466 0.2820694 0.072141364 -1.2615234
0.28156993 0.32934996 -1.280445 -0.64523953 0.20305392 -0.9855619 0.28788614 -0.15147474
-0.66933674 0.03194257 0.1243454 0.36744535 0.18001655 -1.0234977 0.08865211 -0.29908788
-0.41899392 0.34815368 -0.053807743 0.41796425 0.21424922 0.041995183 0.12098784 -1.6585149
0.7892992 0.4641863 -1.2676785 0.2742868 -0.10334927 -1.0250865 -0.33904856 -1.4655049
00000000: 4573 a9bf 3a49 6ebf d506 a6bf 029a acbf
00000010: 3559 22be 4bf1 43be df66 593e c5ff fa3e
00000020: 0ab7 29bf 4b74 46bf c160 293f b695 c6bf
00000030: 5209 343e af29 d33e 2874 52be bb37 93be
00000040: c2d2 85be 44b3 67bf 0c0d c8be 4369 72bf
00000050: 565a 683e 3cf0 b43e a8ab c4bf 2b0a e73e
00000060: 4c1f d3bf b860 c73e d846 f93e b1de fbbb
00000070: cc9c 8fbd 5465 02bf 17cf eebf cab1 a63e
00000080: 8cb1 b3be 8054 b0be 11e6 dd3e 822c f0bf
00000090: 807f d5bb 4e88 afbf 5be1 d6be 59ac cc3e
000000a0: 3a13 afbf 1142 ce3e 09b7 c2bf 30da 46bf
000000b0: 365f 9dbe 2748 7f3f 3e72 ea3e 8d02 5cbf
000000c0: c065 563f c274 6bbe e857 cdbf 9372 a9bf
000000d0: 6848 c6bd c811 78bf 4755 93bf 098e 3e3e
000000e0: d672 173f 1244 0abe a2ae 65bf 7304 c8be
000000f0: d6d8 583e 676b 903e dabe 933d 9979 a1bf
00000100: ef29 903e 8fa0 a83e 9fe5 a3bf 6b2e 25bf
00000110: 5eed 4f3e c94d 7cbf d065 933e 321c 1bbe
00000120: a759 2bbf 36d6 023d cda8 fe3d cc21 bc3e
00000130: 4256 383e f901 83bf 3d8f b53d 0c22 99be
00000140: 5f86 d6be 3341 b23e 8265 5cbd 69ff d53e
00000150: 2664 5b3e 2403 2c3d 79c8 f73d 374a d4bf
00000160: 830f 4a3f d4a9 ed3e 4a43 a2bf 526f 8c3e
00000170: c8a8 d3bd 0936 83bf c697 adbe aa95 bbbf

l3.bias f4 [12]
0.11861329 -0.41226724 0.11100263 0.1264833 0.2790225 0.05354683 0.118453 -0.5171586
-0.024516482 0.11102388 -0.5477313 0.24904801
00000000: 86eb f23d b114 d3be 5955 e33d d784 013e
00000010: 0adc 8e3e ec53 5b3d 7d97 f23d 8264 04bf
00000020: cad6 c8bc 7d60 e33d 1e38 0cbf 7106 7f3e
